======= RUNNING CPU matmul =======
Sequential(
  (0): Flatten()
  (1): Linear(in_features=169, out_features=81, bias=True)
  (2): ReLU()
  (3): Linear(in_features=81, out_features=16, bias=True)
  (4): ReLU()
  (5): Linear(in_features=16, out_features=16, bias=True)
  (6): ReLU()
  (7): Linear(in_features=16, out_features=1, bias=True)
  (8): ReLU()
  (9): Linear(in_features=1, out_features=2, bias=True)
)
iter 0: iscore=9.778887033462524e-08
iter 118: iscore=9.872019290924072e-08
iter 1218: iscore=9.96515154838562e-08
iter 2582: iscore=1.0058283805847168e-07
iter 2889: iscore=1.0151416063308716e-07
iter 5295: iscore=1.0244548320770264e-07
cw0=3.1424534e-09 cw=-2.445482e-09
succ=True
======= RUNNING CPU conv =======
Sequential(
  (0): Conv2d(1, 1, kernel_size=(5, 5), stride=(1, 1))
  (1): Flatten()
  (2): ReLU()
  (3): Linear(in_features=81, out_features=16, bias=True)
  (4): ReLU()
  (5): Linear(in_features=16, out_features=16, bias=True)
  (6): ReLU()
  (7): Linear(in_features=16, out_features=1, bias=True)
  (8): ReLU()
  (9): Linear(in_features=1, out_features=2, bias=True)
)
iter 2: iscore=1.0244548320770264e-07
iter 8: iscore=1.0337680578231812e-07
iter 116: iscore=1.043081283569336e-07
iter 491: iscore=1.0523945093154907e-07
iter 554: iscore=1.0617077350616455e-07
cw0=-1.5141595e-09 cw=-6.1707723e-09
succ=True
======= RUNNING GPU mm =======
found cudnn: /usr/lib/libcudnn.so.7.6.5
Sequential(
  (0): Flatten()
  (1): Linear(in_features=169, out_features=81, bias=True)
  (2): ReLU()
  (3): Linear(in_features=81, out_features=16, bias=True)
  (4): ReLU()
  (5): Linear(in_features=16, out_features=16, bias=True)
  (6): ReLU()
  (7): Linear(in_features=16, out_features=1, bias=True)
  (8): ReLU()
  (9): Linear(in_features=1, out_features=2, bias=True)
)
iter 0: iscore=9.685754776000977e-08
iter 3: iscore=9.778887033462524e-08
iter 15: iscore=9.872019290924072e-08
iter 33: iscore=9.96515154838562e-08
iter 42: iscore=1.0058283805847168e-07
iter 102: iscore=1.0151416063308716e-07
iter 1003: iscore=1.0244548320770264e-07
iter 1475: iscore=1.0337680578231812e-07
iter 1850: iscore=1.043081283569336e-07
iter 2193: iscore=1.0523945093154907e-07
iter 2307: iscore=1.0617077350616455e-07
iter 2319: iscore=1.0710209608078003e-07
iter 3234: iscore=1.0803341865539551e-07
cw0=4.073776e-09 cw=-8.0334175e-09
succ=True
======= RUNNING GPU conv =======
found cudnn: /usr/lib/libcudnn.so.7.6.5
Sequential(
  (0): Conv2d(1, 1, kernel_size=(5, 5), stride=(1, 1))
  (1): Flatten()
  (2): ReLU()
  (3): Linear(in_features=81, out_features=16, bias=True)
  (4): ReLU()
  (5): Linear(in_features=16, out_features=16, bias=True)
  (6): ReLU()
  (7): Linear(in_features=16, out_features=1, bias=True)
  (8): ReLU()
  (9): Linear(in_features=1, out_features=2, bias=True)
)
iter 3: iscore=1.0337680578231812e-07
iter 40: iscore=1.043081283569336e-07
iter 118: iscore=1.0523945093154907e-07
iter 239: iscore=1.0617077350616455e-07
iter 348: iscore=1.0710209608078003e-07
iter 696: iscore=1.0803341865539551e-07
iter 809: iscore=1.0896474123001099e-07
cw0=-1.5141595e-09 cw=-8.96474e-09
succ=True
======= RUNNING GPU Winograd =======
found cudnn: /usr/lib/libcudnn.so.7.6.5
Sequential(
  (0): Conv2d(1, 1, kernel_size=(5, 5), stride=(1, 1))
  (1): Flatten()
  (2): ReLU()
  (3): Linear(in_features=81, out_features=16, bias=True)
  (4): ReLU()
  (5): Linear(in_features=16, out_features=16, bias=True)
  (6): ReLU()
  (7): Linear(in_features=16, out_features=1, bias=True)
  (8): ReLU()
  (9): Linear(in_features=1, out_features=2, bias=True)
)
iter 0: iscore=-1.2898817658424377e-06
iter 2: iscore=-3.948807716369629e-07
iter 24: iscore=-2.859160304069519e-07
iter 42: iscore=-2.7008354663848877e-07
iter 52: iscore=-2.6728957891464233e-07
iter 70: iscore=5.122274160385132e-07
iter 76: iscore=5.448237061500549e-07
iter 105: iscore=5.569308996200562e-07
iter 118: iscore=7.050111889839172e-07
iter 123: iscore=1.1743977665901184e-06
…
